…
      "Model: \"model\"\n",
      "__________________________________________________________________________________________________\n",
      "Layer (type)                    Output Shape         Param #     Connected to                     \n",
      "==================================================================================================\n",
      "input_1 (InputLayer)            [(None, 1, 138, 40)] 0                                            \n",
      "__________________________________________________________________________________________________\n",
      "conv2d (Conv2D)                 (None, 1, 138, 45)   16200       input_1[0][0]                    \n",
      "__________________________________________________________________________________________________\n",
      "conv2d_1 (Conv2D)               (None, 1, 138, 45)   18270       conv2d[0][0]                     \n",
      "__________________________________________________________________________________________________\n",
      "batch_normalization (BatchNorma (None, 1, 138, 45)   180         conv2d_1[0][0]                   \n",
      "__________________________________________________________________________________________________\n",
      "conv2d_2 (Conv2D)               (None, 1, 138, 45)   18270       batch_normalization[0][0]        \n",
      "__________________________________________________________________________________________________\n",
      "batch_normalization_1 (BatchNor (None, 1, 138, 45)   180         conv2d_2[0][0]                   \n",
      "__________________________________________________________________________________________________\n",
      "add (Add)                       (None, 1, 138, 45)   0           batch_normalization_1[0][0]      \n",
      "                                                                 conv2d[0][0]                     \n",
      "__________________________________________________________________________________________________\n",
      "conv2d_3 (Conv2D)               (None, 1, 138, 45)   18270       add[0][0]                        \n",
      "__________________________________________________________________________________________________\n",
      "batch_normalization_2 (BatchNor (None, 1, 138, 45)   180         conv2d_3[0][0]                   \n",
      "__________________________________________________________________________________________________\n",
      "conv2d_4 (Conv2D)               (None, 1, 138, 45)   18270       batch_normalization_2[0][0]      \n",
      "__________________________________________________________________________________________________\n",
      "batch_normalization_3 (BatchNor (None, 1, 138, 45)   180         conv2d_4[0][0]                   \n",
      "__________________________________________________________________________________________________\n",
      "add_1 (Add)                     (None, 1, 138, 45)   0           batch_normalization_3[0][0]      \n",
      "                                                                 add[0][0]                        \n",
      "__________________________________________________________________________________________________\n",
      "conv2d_5 (Conv2D)               (None, 1, 138, 45)   18270       add_1[0][0]                      \n",
      "__________________________________________________________________________________________________\n",
      "batch_normalization_4 (BatchNor (None, 1, 138, 45)   180         conv2d_5[0][0]                   \n",
      "__________________________________________________________________________________________________\n",
      "conv2d_6 (Conv2D)               (None, 1, 138, 45)   18270       batch_normalization_4[0][0]      \n",
      "__________________________________________________________________________________________________\n",
      "batch_normalization_5 (BatchNor (None, 1, 138, 45)   180         conv2d_6[0][0]                   \n",
      "__________________________________________________________________________________________________\n",
      "add_2 (Add)                     (None, 1, 138, 45)   0           batch_normalization_5[0][0]      \n",
      "                                                                 add_1[0][0]                      \n",
      "__________________________________________________________________________________________________\n",
      "conv2d_7 (Conv2D)               (None, 1, 138, 45)   18270       add_2[0][0]                      \n",
      "__________________________________________________________________________________________________\n",
      "batch_normalization_6 (BatchNor (None, 1, 138, 45)   180         conv2d_7[0][0]                   \n",
      "__________________________________________________________________________________________________\n",
      "conv2d_8 (Conv2D)               (None, 1, 138, 45)   18270       batch_normalization_6[0][0]      \n",
      "__________________________________________________________________________________________________\n",
      "batch_normalization_7 (BatchNor (None, 1, 138, 45)   180         conv2d_8[0][0]                   \n",
      "__________________________________________________________________________________________________\n",
      "add_3 (Add)                     (None, 1, 138, 45)   0           batch_normalization_7[0][0]      \n",
      "                                                                 add_2[0][0]                      \n",
      "__________________________________________________________________________________________________\n",
      "conv2d_9 (Conv2D)               (None, 1, 138, 45)   18270       add_3[0][0]                      \n",
      "__________________________________________________________________________________________________\n",
      "batch_normalization_8 (BatchNor (None, 1, 138, 45)   180         conv2d_9[0][0]                   \n",
      "__________________________________________________________________________________________________\n",
      "conv2d_10 (Conv2D)              (None, 1, 138, 45)   18270       batch_normalization_8[0][0]      \n",
      "__________________________________________________________________________________________________\n",
      "batch_normalization_9 (BatchNor (None, 1, 138, 45)   180         conv2d_10[0][0]                  \n",
      "__________________________________________________________________________________________________\n",
      "add_4 (Add)                     (None, 1, 138, 45)   0           batch_normalization_9[0][0]      \n",
      "                                                                 add_3[0][0]                      \n",
      "__________________________________________________________________________________________________\n",
      "conv2d_11 (Conv2D)              (None, 1, 138, 45)   18270       add_4[0][0]                      \n",
      "__________________________________________________________________________________________________\n",
      "batch_normalization_10 (BatchNo (None, 1, 138, 45)   180         conv2d_11[0][0]                  \n",
      "__________________________________________________________________________________________________\n",
      "conv2d_12 (Conv2D)              (None, 1, 138, 45)   18270       batch_normalization_10[0][0]     \n",
      "__________________________________________________________________________________________________\n",
      "batch_normalization_11 (BatchNo (None, 1, 138, 45)   180         conv2d_12[0][0]                  \n",
      "__________________________________________________________________________________________________\n",
      "add_5 (Add)                     (None, 1, 138, 45)   0           batch_normalization_11[0][0]     \n",
      "                                                                 add_4[0][0]                      \n",
      "__________________________________________________________________________________________________\n",
      "conv2d_13 (Conv2D)              (None, 1, 138, 45)   18270       add_5[0][0]                      \n",
      "__________________________________________________________________________________________________\n",
      "batch_normalization_12 (BatchNo (None, 1, 138, 45)   180         conv2d_13[0][0]                  \n",
      "__________________________________________________________________________________________________\n",
      "global_average_pooling2d (Globa (None, 45)           0           batch_normalization_12[0][0]     \n",
      "__________________________________________________________________________________________________\n",
      "dense (Dense)                   (None, 35)           1610        global_average_pooling2d[0][0]   \n",
      "==================================================================================================\n",
      "Total params: 257,660\n",
      "Trainable params: 256,490\n",
      "Non-trainable params: 1,170\n",
      "__________________________________________________________________________________________________\n"
     ]
    }
   ],
   "source": [
…
